…
[03-15 05:05:28] (y/infinity/utils/load.py, line  99)=> image_adapter.image_proj2.2.bias: True
[03-15 05:05:28] (ity/models/init_param.py, line  15)=> [init_weights] Infinity with std=0.02
[03-15 05:05:29] (gannh9/Infinity/train.py, line 175)=> >>>>>>>>>>>>>> Load pretrained model from weights/infinity_2b_reg.pth <<<<<<<<<<<<<<<<<
[03-15 05:05:36] (gannh9/Infinity/train.py, line 179)=> [PT] GPT model = Infinity(
  drop_path_rate=0.1
  (norm0_cond): Identity()
  (text_norm): FastRMSNorm(C=2048, eps=1e-06, elementwise_affine=True)
  (text_proj_for_sos): TextAttentivePool(
    (ca): CrossAttention(
      Cq=2048, Ckv=2048, cos_attn=False
      (mat_kv): Linear(in_features=2048, out_features=4096, bias=False)
      (proj): Linear(in_features=2048, out_features=2048, bias=True)
      (proj_drop): Identity()
    )
  )
  (text_proj_for_ca): Sequential(
    (0): Linear(in_features=2048, out_features=2048, bias=True)
    (1): GELU(approximate='tanh')
    (2): Linear(in_features=2048, out_features=2048, bias=True)
  )
  (lvl_embed): Embedding(15, 2048)
  (norm0_ve): Identity()
  (word_embed): Linear(in_features=32, out_features=2048, bias=True)
  (shared_ada_lin): Sequential(
    (0): SiLU()
    (1): SharedAdaLin(in_features=2048, out_features=12288, bias=True)
  )
  (head_nm): AdaLNBeforeHead(
    (ln_wo_grad): LayerNorm((2048,), eps=1e-06, elementwise_affine=False)
    (ada_lin): Sequential(
      (0): SiLU()
      (1): Linear(in_features=2048, out_features=4096, bias=True)
    )
  )
  (head): Linear(in_features=2048, out_features=64, bias=True)
  (block_chunks): ModuleList(
    (0): MultipleLayers(
      (module): ModuleList(
        (0): CrossAttnBlock(
          shared_aln=True, fused_norm=False, ca_gamma=1
          (drop_path): Identity()
          (sa): SelfAttention(
            using_flash=False, tau=1, cos_attn=True
            (mat_qkv): Linear(in_features=2048, out_features=6144, bias=False)
            (proj): Linear(in_features=2048, out_features=2048, bias=True)
            (proj_drop): Identity()
          )
          (ca): CrossAttention(
            Cq=2048, Ckv=2048, cos_attn=False
            (mat_q): Linear(in_features=2048, out_features=2048, bias=True)
            (mat_kv): Linear(in_features=2048, out_features=4096, bias=False)
            (proj): Linear(in_features=2048, out_features=2048, bias=True)
            (proj_drop): Identity()
          )
          (ffn): FFN(
            fused_mlp=False
            (fc1): Linear(in_features=2048, out_features=8192, bias=True)
            (act): GELU(approximate='tanh')
            (fc2): Linear(in_features=8192, out_features=2048, bias=True)
            (drop): Identity()
          )
          (ln_wo_grad): LayerNorm((2048,), eps=1e-06, elementwise_affine=False)
          (ca_norm): LayerNorm((2048,), eps=1e-06, elementwise_affine=True)
        )
        (1-3): 3 x CrossAttnBlock(
          shared_aln=True, fused_norm=False, ca_gamma=1
          (drop_path): DropPath(...)
          (sa): SelfAttention(
            using_flash=False, tau=1, cos_attn=True
            (mat_qkv): Linear(in_features=2048, out_features=6144, bias=False)
            (proj): Linear(in_features=2048, out_features=2048, bias=True)
            (proj_drop): Identity()
          )
          (ca): CrossAttention(
            Cq=2048, Ckv=2048, cos_attn=False
            (mat_q): Linear(in_features=2048, out_features=2048, bias=True)
            (mat_kv): Linear(in_features=2048, out_features=4096, bias=False)
            (proj): Linear(in_features=2048, out_features=2048, bias=True)
            (proj_drop): Identity()
          )
          (ffn): FFN(
            fused_mlp=False
            (fc1): Linear(in_features=2048, out_features=8192, bias=True)
            (act): GELU(approximate='tanh')
            (fc2): Linear(in_features=8192, out_features=2048, bias=True)
            (drop): Identity()
          )
          (ln_wo_grad): LayerNorm((2048,), eps=1e-06, elementwise_affine=False)
          (ca_norm): LayerNorm((2048,), eps=1e-06, elementwise_affine=True)
        )
      )
    )
    (1-7): 7 x MultipleLayers(
      (module): ModuleList(
        (0-3): 4 x CrossAttnBlock(
          shared_aln=True, fused_norm=False, ca_gamma=1
          (drop_path): DropPath(...)
          (sa): SelfAttention(
            using_flash=False, tau=1, cos_attn=True
            (mat_qkv): Linear(in_features=2048, out_features=6144, bias=False)
            (proj): Linear(in_features=2048, out_features=2048, bias=True)
            (proj_drop): Identity()
          )
          (ca): CrossAttention(
            Cq=2048, Ckv=2048, cos_attn=False
            (mat_q): Linear(in_features=2048, out_features=2048, bias=True)
            (mat_kv): Linear(in_features=2048, out_features=4096, bias=False)
            (proj): Linear(in_features=2048, out_features=2048, bias=True)
            (proj_drop): Identity()
          )
          (ffn): FFN(
            fused_mlp=False
            (fc1): Linear(in_features=2048, out_features=8192, bias=True)
            (act): GELU(approximate='tanh')
            (fc2): Linear(in_features=8192, out_features=2048, bias=True)
            (drop): Identity()
          )
          (ln_wo_grad): LayerNorm((2048,), eps=1e-06, elementwise_affine=False)
          (ca_norm): LayerNorm((2048,), eps=1e-06, elementwise_affine=True)
        )
      )
    )
  )
  (image_adapter): ImageInstructionAdapter(
    (adapter_gate): AdapterGate()
    (adapter_query): ModuleList(
      (0-31): 32 x Linear(in_features=2048, out_features=2048, bias=True)
    )
    (image_norm): LayerNorm((2048,), eps=1e-05, elementwise_affine=True)
    (image_proj): Linear(in_features=2048, out_features=2048, bias=True)
    (image_proj2): ModuleList(
      (0): Linear(in_features=32, out_features=64, bias=True)
      (1): Linear(in_features=64, out_features=64, bias=True)
      (2): Linear(in_features=64, out_features=32, bias=True)
    )
  )
)


[03-15 05:05:36] (gannh9/Infinity/train.py, line 181)=> [PT][#para] VAE=110.12, VAE.quant=0.00
[03-15 05:05:36] (gannh9/Infinity/train.py, line 184)=> [PT][#para] GPT=2343.06


[03-15 05:05:36] (gannh9/Infinity/train.py, line 212)=> >>>>>>>>>>>>>>>>>>>>>>>>>>>>>>>>>>>>>>>>>>>>>      FSDP INIT with args.zero=2 sharding_strategy=<ShardingStrategy.SHARD_GRAD_OP: 2> auto_wrap_policy=<torch.distributed.fsdp.wrap.ModuleWrapPolicy object at 0x7f27ccb8d350>({<class 'infinity.models.infinity.MultipleLayers'>})      <<<<<<<<<<<<<<<<<<<<<<<<<<<<<<<<<<<<<<<<<<<<<
…
